…
400 2
200 3
100 4
50 5 
25 6


Intermediate LayerGetter used to define input projection 
Must be fitting with Backbone Construction -> Setting Introduction

resnet 18 # test with both 
    torch.Size([1, 64, 200, 301])
    torch.Size([1, 128, 100, 151])
    torch.Size([1, 256, 50, 76])
    torch.Size([1, 512, 25, 38])

resnet50 
    torch.Size([1, 256, 200, 301])
    torch.Size([1, 512, 100, 151])
    torch.Size([1, 1024, 50, 76])
    torch.Size([1, 2048, 50, 76])

torch.Size([1, 64, 200, 301])
torch.Size([1, 128, 100, 151])
torch.Size([1, 256, 50, 76])
torch.Size([1, 512, 25, 38])
ModuleList(
  (0): Conv2d(1024, 512, kernel_size=(3, 3), stride=(2, 2), padding=(1, 1))
  (1): Conv2d(512, 256, kernel_size=(3, 3), stride=(2, 2), padding=(1, 1))
  (2): Conv2d(256, 128, kernel_size=(3, 3), stride=(2, 2), padding=(1, 1))
  (3): Conv2d(128, 64, kernel_size=(3, 3), stride=(2, 2), padding=(1, 1))
)





bbox_mask.shape = torch.Size([1, 300, 8, 25, 38])
torch.Size([1, 512, 100, 151])
torch.Size([1, 1024, 50, 76])
torch.Size([1, 2048, 50, 76])
ModuleList(
  (0): Conv2d(2048, 1024, kernel_size=(3, 3), stride=(2, 2), padding=(1, 1))
  (1): Conv2d(1024, 512, kernel_size=(3, 3), stride=(2, 2), padding=(1, 1))
  (2): Conv2d(512, 256, kernel_size=(3, 3), stride=(2, 2), padding=(1, 1))
)
Input MHead SegConv Shape x.shape = torch.Size([1, 256, 25, 38]), bbox_mask bbox_mask.shape = torch.Size([1, 300, 8, 25, 38]),
features from image torch.Size([1, 1024, 25, 38])
features from image torch.Size([1, 512, 25, 38])
features from image torch.Size([1, 256, 50, 76])
First Expand: x.shape = torch.Size([300, 264, 25, 38])
Sec Expand: x.shape = torch.Size([300, 64, 25, 38])
Third Expand: x.shape = torch.Size([300, 32, 25, 38])
Fourth Expand: x.shape = torch.Size([300, 16, 50, 76])
Out MHead SegConv Shape x.shape = torch.Size([300, 1, 50, 76])
seg_masks.shape = torch.Size([300, 1, 50, 76])
outputs_seg_masks.shape = torch.Size([1, 300, 50, 76]) <-- 1/16








torch.Size([1, 64, 200, 301])
torch.Size([1, 128, 100, 151])
torch.Size([1, 256, 50, 76])
torch.Size([1, 512, 25, 38])
ModuleList(
  (0): Conv2d(512, 256, kernel_size=(3, 3), stride=(2, 2), padding=(1, 1))
  (1): Conv2d(256, 128, kernel_size=(3, 3), stride=(2, 2), padding=(1, 1))
  (2): Conv2d(128, 64, kernel_size=(3, 3), stride=(2, 2), padding=(1, 1))
)
in maskhead
Input MHead SegConv Shape x.shape = torch.Size([1, 256, 25, 38]), bbox_mask bbox_mask.shape = torch.Size([1, 300, 8, 25, 38]),
features from image torch.Size([1, 256, 13, 19])
features from image torch.Size([1, 128, 25, 38])
features from image torch.Size([1, 64, 50, 76])
First Expand: x.shape = torch.Size([300, 264, 25, 38])
…
